model_output/best_model.pt (torch, 96802 bytes, 23 tensors)

conv_first.bias f4 [64]
000000 ae e2 b6 bd 8d 27 56 3e c3 ff 88 3c d5 09 04 3e
       -0.089299545 0.20913525 0.01672352 0.12894376
000010 14 76 e6 bc f9 a7 68 bc 11 a8 ad 3c 91 a6 ec bd
       -0.028132476 -0.014200204 0.021198304 -0.115552075
000020 4f 2b 12 bd 81 28 27 3d 4a ac 01 bd bc ee fd bc
       -0.035685834 0.040810112 -0.03165845 -0.030997626
000030 af 78 83 3d 51 54 58 3c c1 60 66 bc 7b da 42 3d
       0.06419503 0.013203696 -0.014061154 0.04757164
000040 03 51 10 3d b2 35 41 3e 64 ec 0e 3e 66 10 4f 3d
       0.03523351 0.1886814 0.13957363 0.05055275
000050 63 89 a9 bd d4 07 3a bd 2b 0f 8a 3d 9b fc 73 3c
       -0.082781576 -0.04541762 0.06741174 0.014891769
000060 80 88 61 3c fd b4 69 bd ac c5 9e bd 65 8a 77 3e
       0.013765454 -0.05705737 -0.07752547 0.24173887
000070 6e 0b 14 bd ef df 27 3d c6 13 f4 3c c8 4b 20 bd
       -0.036143713 0.040985044 0.029794585 -0.03913477
000080 7f 50 4c bc 3e a4 ba bc 17 47 09 bb ca 4b bb 3e
       -0.012470364 -0.022783395 -0.0020946914 0.3658126
000090 fe d2 bb 3d f0 a0 a8 3c 78 c8 a0 3d 1a 25 9b be
       0.09171103 0.020584553 0.078507364 -0.30301744
0000a0 6b d2 f7 3e 26 09 9b bd 6a c3 37 3e fd d9 5b 3d
       0.48402724 -0.07570104 0.17945638 0.053674687
0000b0 f0 a6 e5 bd 47 90 8c bc a3 67 ed 3c 27 c8 d5 3e
       -0.112134814 -0.01715864 0.028980082 0.41754267
0000c0 86 74 83 3b 40 09 e6 3d ac 48 e8 3b 06 b8 b3 bd
       0.0040116934 0.11232233 0.0070887413 -0.08775334
0000d0 92 a7 89 bd 23 28 44 be 3d cd d6 bc ea c6 dd 3d
       -0.067214146 -0.19155936 -0.026220912 0.108289555
0000e0 40 14 09 bd b5 c5 1a bb 08 cc 55 be 24 65 be bc
       -0.033466578 -0.0023616378 -0.20878613 -0.023241587
0000f0 fe 31 92 bd 86 27 14 3f 02 5c d0 bc 1b 17 b5 3c
       -0.071384415 0.5787281 -0.025434498 0.022105744

conv_first.lin.weight f4 [64, 8]
000000 4b 2b a5 be c5 14 01 be f8 7a e5 3c 98 92 98 3d
       -0.32259592 -0.12605579 0.028012738 0.074498355
000010 7e 9a b4 3d c2 ff d5 3d b6 b3 c9 3d 6b f8 a2 be
       0.088185295 0.104491726 0.0984873 -0.31830153
000020 da 03 f6 3d ba a5 2d bd 20 a1 89 3e 85 47 34 bc
       0.120124534 -0.042394377 0.2688074 -0.01100338
000030 f4 ec 48 3e 3a db c3 3e 44 a3 8e bd cf f7 61 be
       0.1962164 0.38253194 -0.06964734 -0.22067188
000040 d0 d5 34 be 0f 0a 69 3e fb 13 86 3e ac 29 d9 be
       -0.17659688 0.22757743 0.2618712 -0.42414606
000050 18 2c 46 be c5 7a 3c 3e a4 10 93 bb ae b3 40 bd
       -0.19352758 0.18406208 -0.0044880677 -0.047046356
000060 c1 0a cd bc 4f 1f 4a be c5 1c 03 3f 3e 3a 14 3f
       -0.025029542 -0.19738506 0.51215774 0.5790137
000070 71 8a 49 3e eb 7e 3b 3e b8 fa 36 bc 18 62 50 3d
       0.19681717 0.18310134 -0.011168174 0.0508748
000080 92 ee a6 bd 5f 96 f5 3c d7 01 81 3d ae 42 de 3d
       -0.081509724 0.02997893 0.06299179 0.10852562
000090 01 74 82 be ca f5 f1 3b 74 38 3e be c6 f0 2f bb
       -0.2547913 0.0073840367 -0.18576223 -0.0026846393
0000a0 bd f3 2d 3e 34 c9 1e 3d 8e fe 70 be f7 de 8e 3d
       0.1698751 0.0387661 -0.23534605 0.06976121
0000b0 09 1b 34 bd fb d2 83 bd 4d 4b 99 bb b9 02 8c 3e
       -0.043971095 -0.06436726 -0.004678166 0.27345827
0000c0 b5 ab 54 bd 5a 64 0b 3e c0 72 6a be 90 ad 7d 3c
       -0.051921565 0.136125 -0.22895336 0.015483275
0000d0 92 75 71 be 41 ee 4c 3e 79 b0 9c 3e 7d a5 cf 3d
       -0.23580006 0.20012762 0.30603388 0.10138986
0000e0 ea 2d a7 3e 11 c7 0a be de c5 39 3e 92 2f 98 3d
       0.32652217 -0.135525 0.18141887 0.07430948
0000f0 08 48 46 bc e8 23 48 3d 04 03 9d 3d f3 30 bd 3e
       -0.0121021345 0.048862368 0.07666591 0.36951408
000100 e3 59 1e be d0 73 d4 3d cb 34 15 bd b0 92 47 3e
       -0.15463977 0.10373652 -0.0364273 0.1948955
000110 3e 1d c2 bd f5 fa 6b be de a8 4c bd 39 b1 6e be
       -0.09478234 -0.23044951 -0.04996573 -0.23309793
000120 6c c0 a2 bd 12 c0 ad be c2 f5 9a bd 25 5c 5d 3e
       -0.07946858 -0.339356 -0.07566406 0.21617182
000130 08 c4 95 be bc 67 2a 3e b3 42 d2 bd bf 20 15 be
       -0.29251122 0.16641134 -0.10266628 -0.14563273
000140 d5 f9 5a be 97 08 82 bd 5b 39 5e 3e e0 30 63 bd
       -0.21384366 -0.06349295 0.21701567 -0.055466533
000150 b4 d7 c6 bc 65 dc 19 3e 5f 55 70 be 10 2f c8 bd
       -0.024272777 0.1502548 -0.23470066 -0.097746015
000160 ee 98 09 be 24 ba 23 3e db 8d ae bd 8e 4a a6 bc
       -0.13437244 0.15988976 -0.085231505 -0.020299222
000170 a8 73 a7 bd cb c0 87 be f4 cb 07 3e 23 47 bd 3d
       -0.081763566 -0.26514277 0.13261396 0.09242084
000180 65 d4 4a bd 82 cb 99 3e 30 66 5a be f9 ec 08 3d
       -0.04951896 0.30038077 -0.21328044 0.03342912
000190 3c 66 31 3e 80 c9 81 3e be cd f9 bc 96 85 2f 3d
       0.17324156 0.25349045 -0.030493613 0.042852007
0001a0 74 79 1d be 16 f0 09 3e 47 fa 25 be ad 8a 5c be
       -0.15378362 0.13470492 -0.16208754 -0.21537276
0001b0 98 8e 00 3e 06 38 80 3e 76 be 33 3e 00 f4 de 3d
       0.12554395 0.25042742 0.17553124 0.10886383
0001c0 e3 fb 5e 3e 9c 2d 99 be 8c 46 d8 bd 1e f4 d9 3b
       0.21775775 -0.2991761 -0.10560331 0.0066514155
0001d0 a2 b5 b6 3e 1f 8b d1 3e e7 24 9b 3d d4 25 bd 3e
       0.3568545 0.40926453 0.07575398 0.36942923
0001e0 8c 27 33 bd bb 96 03 be bc d2 2c 3d 91 68 49 3b
       -0.043738887 -0.12850468 0.04219316 0.0030732492
0001f0 92 b0 a2 be c7 f1 13 3e b4 30 5b 3e 4c 2f c5 bd
       -0.31775337 0.144477 0.21405298 -0.09628162
000200 e6 81 84 3e 12 2f 09 bd 9a 93 bb bb 56 ec 20 3e
       0.25880355 -0.033492155 -0.0057243826 0.15715155
000210 0c 10 5e be 8a 35 52 3d 8a 55 1d be 02 fe 25 bd
       -0.21685809 0.05132059 -0.15364662 -0.040525444
000220 15 82 00 3e 95 65 29 be 99 2c b1 3d 86 a9 01 be
       0.12549622 -0.16542657 0.086510845 -0.12662324
000230 8a f1 99 be 1a b0 05 bc d6 df e4 bc 62 2e 33 3e
       -0.30067092 -0.008159662 -0.027938765 0.17498162
000240 36 55 8d 3d 3c b2 5c bc 98 3a 3a 3e ad 9e 0e be
       0.06901018 -0.013470229 0.18186414 -0.13927718
000250 44 69 87 3e cf 97 8e bd 14 f3 cc bd 33 fd 39 be
       0.264475 -0.06962549 -0.10007301 -0.18162994
000260 82 c3 24 3c ff d0 52 3d 40 de fc 3d 84 42 7f bd
       0.010056378 0.051468845 0.12347078 -0.062319294
000270 e6 ea e2 bd d6 44 21 3c 04 75 20 be 95 a8 05 be
       -0.110799596 0.009843072 -0.15669638 -0.1305259
000280 e1 a7 06 be 15 e0 55 3e ff 1f 2a 3e c7 e5 e0 be
       -0.13149978 0.20886262 0.16613768 -0.43925306
000290 72 4d 58 3e 0b 33 79 bd dd ad a4 bb 47 db 8a be
       0.21123293 -0.060839694 -0.005025609 -0.2712042
0002a0 d4 f7 06 3e 90 57 2a be 67 08 9e be 1e 4e 0c 3e
       0.13180476 -0.16634965 -0.30865785 0.13701674
0002b0 a1 8b 86 be fc 11 57 be 7f d6 94 3e fa 69 fa 3d
       -0.26278403 -0.21002954 0.29069898 0.12227245
0002c0 58 88 43 3e dd a5 f5 bc 4e f7 00 3b 2b 0c b1 bd
       0.1909498 -0.029986316 0.0019678655 -0.08644899
0002d0 e4 2b 5c bd 14 16 d3 3e 5a f3 91 3d 7b 93 44 3e
       -0.053752795 0.41227782 0.07126494 0.19196884
0002e0 4e c8 06 3e 83 49 13 3e db ce 85 bb e8 c1 3f 3c
       0.13162348 0.14383511 -0.004083497 0.011703946
0002f0 c4 47 90 3e 83 bb 0c 3e cd 9a 00 3d 98 ba 14 be
       0.28179753 0.13743405 0.03139763 -0.14524305
000300 b6 3e a8 bc 20 b5 8b be 5b f2 e2 bc cf c6 53 be
       -0.020537715 -0.27286625 -0.027703455 -0.20681308
000310 ad 5f 2f bd 3e d4 fa bd fa 28 fb 3b a2 1c 4d 3e
       -0.042815853 -0.12247513 0.007664797 0.20030454
000320 b4 07 21 3e d8 ee a1 be ab df 88 bd b6 fe ae 3e
       0.15725595 -0.31627536 -0.06683286 0.34178704
000330 de fc 20 3e 4c 1e 13 be d0 05 ab 3c 31 15 01 3e
       0.15721461 -0.14367026 0.020876795 0.1260574
000340 dc 8f c3 bd 63 86 21 be 6b 8d 8e be eb e1 aa be
       -0.095489234 -0.1577392 -0.27842268 -0.33375487
000350 0c 32 94 be 72 4e bd 3d e6 ee ec 3c 86 83 8e be
       -0.28944433 0.09243478 0.02892251 -0.2783472
000360 d3 37 db bc 99 96 27 3e 39 ac 00 3f 4a b5 cf 3e
       -0.026760017 0.16366042 0.5026279 0.40568
000370 7e 37 2b 3e b9 44 8d 3e 2e 62 fe bb ee 0c 1c be
       0.16720387 0.27591494 -0.007763169 -0.15239307
000380 3a 6e 4d bd 35 db 35 be b8 0b 8b bd 67 3c 4a bd
       -0.05015395 -0.17759402 -0.067893445 -0.04937401
000390 42 86 25 3e 2d 95 2b be 00 1d 71 be f3 cd e2 3c
       0.16164497 -0.16756125 -0.23546219 0.027686095
0003a0 c1 57 37 3e 65 2e a1 bd b7 95 b2 bd 7e 51 39 be
       0.17904569 -0.07870177 -0.08719962 -0.18097493
0003b0 b9 36 9e 3d dc e5 e7 3d 0b 33 7a 3d 49 1a 95 bd
       0.07725281 0.11323139 0.061083835 -0.07280404
0003c0 1f 2f b4 bd 9e d9 b7 3d 89 2d 48 be 00 a6 70 3e
       -0.0879805 0.08977054 -0.1954862 0.23500824
0003d0 05 e6 8a be 17 09 ac 3d 5e 29 69 be 60 2d 9d 3d
       -0.27128616 0.08400171 -0.22769687 0.0767467
0003e0 4c 6f f1 bd dd da ab 3e 41 f9 30 3e 9b 4f bb bd
       -0.11788806 0.33565417 0.17282583 -0.09146043
0003f0 29 fd 35 3e 85 2b 72 3e f9 a5 3d 3d 5e 91 80 3d
       0.17772354 0.23649414 0.046300862 0.062777266

norm_first.weight f4 [64]
000000 bd 99 81 3f c6 d7 78 3f 69 bf 8d 3f b5 32 98 3f
       1.0125042 0.97204244 1.1074039 1.1890475
000010 2d a0 6a 3f 8e 25 7e 3f e5 a7 67 3f 8f bc 79 3f
       0.9165066 0.99276054 0.9049056 0.9755334
000020 ce 22 6b 3f 09 d8 6f 3f c7 36 78 3f bb 34 73 3f
       0.9184998 0.9368902 0.96958584 0.95002335
000030 1a 39 78 3f ec 89 85 3f e8 ef 72 3f 6e 43 74 3f
       0.9696213 1.0432715 0.9489732 0.9541539
000040 f9 08 67 3f 6b 71 66 3f f6 00 79 3f 07 66 79 3f
       0.90248066 0.9001681 0.9726709 0.97421306
000050 0b c3 8b 3f 86 ad 73 3f 36 0c 76 3f bb 70 80 3f
       1.0918897 0.9518665 0.9611238 1.0034403
000060 cc ba 71 3f bb 12 82 3f f8 31 85 3f e7 40 b5 3f
       0.94425654 1.0161966 1.0405874 1.4160432
000070 d7 04 72 3f c7 1d 76 3f 2b 54 7c 3f 3b 4f 74 3f
       0.94538635 0.96139187 0.9856593 0.95433396
000080 80 2d 8c 3f de ae 71 3f 57 a9 69 3f 67 5a 6d 3f
       1.0951385 0.9440745 0.9127402 0.9271607
000090 a2 d7 98 3f 5a a7 6b 3f 5c 01 7e 3f 61 aa a1 3f
       1.1940806 0.92052233 0.99220824 1.263012
0000a0 70 6f 84 3f 1d a3 73 3f b5 80 7a 3f dd 10 74 3f
       1.0346508 0.95170766 0.9785264 0.9533823
0000b0 ab ad 7d 3f 65 e4 66 3f af fa 69 3f e6 5b 9d 3f
       0.9909312 0.9019225 0.9139814 1.229367
0000c0 da ce 6c 3f 2f 15 67 3f 4e 95 5d 3f 68 5d 7b 3f
       0.9250313 0.902667 0.86555946 0.981894
0000d0 58 2c 7e 3f 88 99 7a 3f 73 58 7a 3f 2a c1 99 3f
       0.99286413 0.9789052 0.9779121 1.2012074
0000e0 45 60 6f 3f 65 03 7b 3f 93 59 81 3f 9b b5 71 3f
       0.9350627 0.98052055 1.0105461 0.9441773
0000f0 0b f1 77 3f 6a 35 8a 3f f3 7c 75 3f 34 ae 87 3f
       0.9685218 1.0797551 0.9589378 1.0600038

norm_first.bias f4 [64]
000000 8a 2e 03 3d e5 88 92 bd 03 0c 0d bd b5 1c 83 3e
       0.032026805 -0.07155017 -0.034435283 0.2560784
000010 20 42 8b bd 87 c8 8a bd 1e 1a 72 bd 84 65 ea bc
       -0.06799722 -0.06776529 -0.05910694 -0.02861286
000020 3c 99 b5 bd fc 98 5e bd 3a 24 05 bd c2 16 9d 3b
       -0.08867118 -0.054345116 -0.03250525 0.0047939727
000030 c0 48 4f bd c6 db 9c 3d 9f d1 de bc 96 dc 7d bd
       -0.05060649 0.07659106 -0.027199565 -0.061977945
000040 05 8b 7e bd 71 bb a9 bd 72 82 0d bd 49 5d 79 bd
       -0.062144298 -0.08287705 -0.03454823 -0.06087998
000050 77 f8 d5 bc 53 95 a2 bd 0f 9d 8d bd 20 c9 48 bd
       -0.026119454 -0.079386376 -0.06914722 -0.049019933
000060 af e8 bc bc d1 fc 6f 3d 07 b3 80 bc 7d bb 05 3e
       -0.023060171 0.058590714 -0.015710367 0.13059802
000070 98 3c ef bc 3f a9 d8 bb e0 76 bb bc 5d 3d af bc
       -0.029203698 -0.0066119726 -0.022883832 -0.021391565
000080 8f 92 19 3d 91 7e 71 bd f1 41 c2 bd ff 23 b5 bd
       0.037493285 -0.058958594 -0.094852336 -0.08844756
000090 f8 28 09 3e 88 cd d1 bc 0a 30 62 3d 57 dc 1f 3e
       0.13394535 -0.0256107 0.055221595 0.15611397
0000a0 b3 b6 24 3a 84 56 c8 bd 61 37 6f bc 9d 71 d5 bc
       0.0006283328 -0.097821265 -0.014600606 -0.026055152
0000b0 04 c3 ee bc c5 47 bf bc ae 8a b6 bd e7 c9 2a 3e
       -0.029145725 -0.023349652 -0.0891317 0.16678582
0000c0 13 5a 3d bd 08 d4 0e be 11 e0 d4 bd 78 d5 96 bd
       -0.04622848 -0.13948071 -0.103943 -0.07364935
0000d0 a2 88 5e bd f6 76 76 3c fd 71 a8 bd 6a f7 fc 3e
       -0.054329522 0.015043011 -0.082248665 0.49407512
0000e0 4c dc 71 bd d5 3b e3 bc d8 9e 42 bd 20 1b 75 bd
       -0.059047982 -0.027738491 -0.047514766 -0.05984032
0000f0 61 f2 54 bd fb 63 54 3e 02 4c 8d bd 15 0f b1 bd
       -0.051988963 0.20741265 -0.06899263 -0.08645455

norm_first.mean_scale f4 [64]
000000 95 f2 8a 3f 15 30 86 3f 20 b1 7d 3f 7b 25 8a 3f
       1.085528 1.0483423 0.99098396 1.0792688
000010 67 aa 83 3f 5c 4d 81 3f 41 0c 82 3f 08 6c 7b 3f
       1.0286378 1.0101733 1.015999 0.9821172
000020 21 ed 6d 3f fb 7b 7e 3f b8 9e 66 3f 89 f6 6a 3f
       0.92939955 0.9940793 0.90085936 0.9178243
000030 f8 ad 84 3f bd 54 84 3f 33 11 7a 3f 24 a6 83 3f
       1.0365591 1.033836 0.97682494 1.0285077
000040 02 64 80 3f 00 f5 62 3f 25 6a 65 3f ce f4 58 3f
       1.003052 0.8865509 0.8961509 0.8474854
000050 75 f0 7e 3f 33 e0 87 3f 78 81 75 3f 51 c1 81 3f
       0.9958566 1.0615295 0.9590068 1.013712
000060 b5 9f 84 3f 03 18 79 3f bf 11 89 3f ba 45 8c 3f
       1.0361239 0.97302264 1.0708541 1.0958779
000070 1b 4a 7a 3f 72 67 72 3f 60 a1 5c 3f 0e 62 7a 3f
       0.97769326 0.94689095 0.8618374 0.9780587
000080 a1 59 81 3f e2 24 84 3f b1 f0 89 3f b1 bf 86 3f
       1.0105478 1.0323756 1.0776578 1.052725
000090 68 b7 99 3f 2e 5d 7b 3f 28 73 6a 3f 8d d5 95 3f
       1.2009096 0.98189056 0.91581964 1.1705796
0000a0 d8 0b 86 3f 67 9f 79 3f 90 77 62 3f 9b 2a 7b 3f
       1.0472364 0.97508854 0.8846369 0.98111886
0000b0 3f db 7b 3f 2a 87 83 3f e0 24 80 3f 53 c9 85 3f
       0.9838142 1.0275624 1.0011253 1.0452064
0000c0 8c bc 7d 3f 24 74 5c 3f d8 83 72 3f 6a 2a 7a 3f
       0.99115825 0.86114717 0.9473243 0.9772097
0000d0 3a bd 81 3f 44 94 6b 3f db 83 84 3f bf 9e 93 3f
       1.0135872 0.9202311 1.0352739 1.153282
0000e0 9d 60 8a 3f a5 98 71 3f 5a 28 79 3f 44 38 81 3f
       1.0810734 0.9437354 0.97327197 1.0095296
0000f0 6b eb 79 3f f5 0b 9d 3f 2f f8 7d 3f 39 e8 84 3f
       0.97624844 1.2269274 0.99206823 1.0383369

convs.0.bias f4 [64]
000000 75 94 2e 3e 71 63 98 bb b0 cc 2c 3c 78 4e 59 3e
       0.1704882 -0.004650526 0.010546848 0.2122134
000010 5e c9 04 be 14 c4 04 3d 07 fc e6 bc f5 58 20 bd
       -0.1296744 0.032413557 -0.028196348 -0.039147336
000020 97 e5 83 3c 3f 4c 49 3d f2 6a af 3a bf 8f 49 3e
       0.016100688 0.04914498 0.0013383313 0.19683741
000030 ae 6a 98 bd 0e 3d cb 3d ef c2 75 3c 46 2b 93 3d
       -0.074422225 0.09923755 0.015000089 0.07185988
000040 6e 2c 25 3d ac e7 8e 3d e4 c2 5c 3c 1f 6e 0a be
       0.040325575 0.06977782 0.0134742 -0.1351857
000050 dc 87 32 3c 40 aa 49 bd 72 d5 f9 bd e4 a5 27 be
       0.010896649 -0.04923463 -0.121989146 -0.16371876
000060 f2 66 65 3d 6e 96 cc bd 09 fa 17 bd bf fd 91 3d
       0.05600638 -0.0998963 -0.037103686 0.07128476
000070 ca 7b 70 bd 0a 28 6d bd dc 31 df ba fe 65 f6 3c
       -0.058711804 -0.057899512 -0.0017028409 0.03007793
000080 f2 7f 51 bc 56 5b 20 be cc 1a 0a be 97 eb 1b bd
       -0.012786852 -0.15659842 -0.13486785 -0.038066473
000090 73 6a f9 3d 71 b0 05 bc d1 3e 02 3e 21 51 e3 bc
       0.12178507 -0.008159743 0.12719275 -0.027748646
0000a0 a8 87 74 3d 5b 41 99 3d 06 76 17 bc 22 a7 96 3d
       0.059699684 0.07483169 -0.009244448 0.07356097
0000b0 03 3d 17 3e 76 63 88 bc 94 95 e2 bd c8 1f 8a 3d
       0.14769368 -0.01664899 -0.11063686 0.06744343
0000c0 08 15 76 bc 01 12 09 3c 27 d8 8c bd 0d 01 4d 3c
       -0.015019663 0.008366109 -0.06877165 0.012512458
0000d0 23 7a b4 bd 0b b3 7b 3d 8b a2 b3 3b 21 09 84 3e
       -0.08812358 0.061450046 0.005482023 0.25788215
0000e0 9b 6f 8b 3d 9f 1c e3 3c ab 28 3c 3d b2 5f c6 bd
       0.068083964 0.027723609 0.04593722 -0.09686221
0000f0 fa e3 a3 3b 66 63 ff bd 07 c4 b6 3d fe 14 0a bd
       0.005001542 -0.124701306 0.08924108 -0.033711426

convs.0.lin.weight f4 [64, 64]
000000 84 cf 89 bd 9a 45 d4 3d e0 da 9a be 14 d6 12 3e
       -0.067290336 0.10364838 -0.30245113 0.14339477
000010 88 39 a1 3d 2e 18 27 be fd bd 9c bc 9a 94 93 3d
       0.07872301 -0.16317818 -0.019133562 0.07206078
000020 30 40 e0 3c 39 92 70 3c 3a 87 6d 3d 68 8a f0 3d
       0.027374357 0.0146833 0.05799029 0.11745149
000030 1d a8 e6 3d 2f 66 03 3e ad d6 6b 3e 94 87 19 3e
       0.11262534 0.12831949 0.23031111 0.14993125
000040 e7 ea 69 3c cd 25 dc 3d 41 1f 44 be ea 57 0d be
       0.0142771965 0.107493974 -0.19152547 -0.13803068
000050 c6 0f 90 bd 1d 8a 6d 3d 6c 95 0a be b4 49 ac bd
       -0.070342585 0.057993043 -0.13533562 -0.08412495
000060 df e0 48 bd d8 6a 62 3e 6b 6d 76 be c4 0a 53 be
       -0.04904258 0.2211107 -0.24065177 -0.20609576
000070 36 d1 23 be 1b ef c6 bd 6e cd 0c 3e 00 12 35 3e
       -0.15997776 -0.097135745 0.1375024 0.17682648
000080 7d 93 b4 bd 57 99 22 be 47 9b 23 3e d1 a6 4a be
       -0.08817194 -0.15878807 0.15977202 -0.19790198
000090 5d e2 00 be 19 b6 3a be e1 85 ac 3a 67 68 a2 be
       -0.1258635 -0.18233527 0.0013162458 -0.31720278
0000a0 34 4e db 3d d9 da 10 bd b2 1f 84 bc fd 54 0f 3d
       0.107082754 -0.03536496 -0.016128395 0.03499316
0000b0 10 e5 65 be b9 fe c1 3d f4 4c 9f 3d 3f 3c f4 3c
       -0.22450662 0.094724126 0.077783495 0.029813884
0000c0 81 3c e1 bd 27 3d 3a 3d 79 e1 2d bd e9 6b 83 3d
       -0.10997868 0.045468476 -0.042451356 0.064170666
0000d0 50 2a 71 bb e2 6b 67 bb 86 31 27 be 37 12 35 bd
       -0.0036798902 -0.0035312106 -0.16327485 -0.044206824
0000e0 e6 83 eb 3d 0b 1e 26 bd 1f ca 2e 3e 9c fa 6d bd
       0.11499767 -0.040555995 0.1706929 -0.058100328
0000f0 37 44 d2 bc 55 6b 0e 3d 1f b5 1e be a7 bc 66 be
       -0.025667293 0.03477033 -0.1549878 -0.22532903
000100 ef 01 57 3e 96 3f 15 3e ab b7 ba 3d 52 ed b8 bc
       0.20996831 0.14575037 0.09117063 -0.0225741
000110 38 bd 1f bd a2 4f 70 bd 68 39 2f 3d 0b c4 18 3d
       -0.038998812 -0.058669694 0.042779356 0.037296336
000120 5d 3c 0a 3e fb fc c0 3d e5 29 13 3e db 45 04 bd
       0.1349959 0.09423252 0.1437145 -0.032293182
000130 6d 7f 27 bc 2c 52 6a 3e 25 6e 94 3d 82 1e f1 3d
       -0.010223252 0.22882909 0.07247571 0.11773397
000140 f4 6d b6 bd e7 ae 04 3e 71 cf 4c bc e1 cf 33 3e
       -0.08907691 0.12957345 -0.01250063 0.17559768
000150 07 22 f3 bd bb d7 97 3c 6f b7 52 bd c1 61 66 3d
       -0.118717246 0.018535485 -0.051444467 0.05624557
000160 57 7b b7 bd d7 97 2f bb a5 ad 68 3e 5c 1e 06 be
       -0.08959072 -0.0026793384 0.2272249 -0.13097519
000170 ae 86 49 3e b3 7d 7e 3e ac 38 55 3e c7 11 8b bd
       0.19680282 0.24852638 0.208224 -0.067905
000180 7a d9 17 3e 70 63 2a bc 54 4a 4a bd 66 7a 31 bb
       0.14829054 -0.010399684 -0.04938729 -0.0027081012
000190 3d 0f db bd 0a 21 ec bd e0 c5 d0 3d 95 93 48 bd
       -0.10696266 -0.11529739 0.10193992 -0.04896887
0001a0 77 53 bb bd 9b d8 50 be 11 be 4b bd 8b 93 4d 3e
       -0.09146779 -0.20395128 -0.04974181 0.20075814
0001b0 52 f9 91 3d ae bf d7 bd 73 87 0b be 41 3e ab 3d
       0.07127632 -0.10534607 -0.13625889 0.08361483
0001c0 6d 2d 42 3e 0d 19 ef bd be 80 67 3e af 87 e2 bb
       0.18962641 -0.116747 0.22607705 -0.0069131474
0001d0 36 c7 a6 3d 89 e0 2d 3e 9c 58 db 3d 09 b8 ad bd
       0.08143465 0.16980185 0.1071026 -0.084823675
0001e0 d3 88 ea 3d 8d 26 9a bc 84 90 09 3e d9 15 21 3e
       0.114518784 -0.01881721 0.13434035 0.1573099
0001f0 55 1e 7e 3e 19 af 91 bd f7 06 2c 3e 31 d7 89 3e
       0.24816258 -0.07113475 0.16799532 0.2692199
000200 bf 03 d9 3c ed 52 54 3e 1e d7 c5 3d 8f ed f6 bd
       0.026491044 0.20734759 0.09660171 -0.120570295
000210 2b 47 b8 3d 97 73 01 bc 58 85 5f 3e 5b 74 8c 3d
       0.08997949 -0.007901094 0.2182821 0.068581305
000220 79 ec ee 3d cb b2 9d 3c 68 89 35 3e e7 92 e6 bd
       0.11666197 0.019250294 0.17728198 -0.11258488
000230 12 73 ee bd 9c 00 ac 3d a1 d3 e7 3d 83 60 16 3e
       -0.11643042 0.08398554 0.11319662 0.14685254
000240 cd e4 df 3d 4a 35 0b 3e 59 d3 ff 3d f2 7d d6 3d
       0.10932312 0.13594547 0.12491483 0.10473241
000250 6d b7 dd bd 25 5d 27 be 7d b7 e9 3d 16 66 07 bc
       -0.10826001 -0.16344126 0.11411951 -0.008264085
000260 11 02 28 3e 78 b3 2b be b9 40 44 3e 02 4d 53 3e
       0.16407038 -0.1676768 0.19165315 0.20634845
000270 5b c7 2c be a5 19 34 3e ed a7 5c bc e5 05 4d bd
       -0.16872923 0.17587908 -0.013467771 -0.05005445
000280 e3 22 36 be 93 41 0d 3e 60 b5 30 be d4 40 3f 3d
       -0.17786746 0.13794546 -0.17256689 0.046692684
000290 73 25 cc 3d b7 da e0 bd 6d 5f ca 3d ff 24 cb 3d
       0.0996808 -0.109792165 0.09881482 0.09919166
0002a0 eb 48 18 be de 46 16 3e fd 1c c8 3d 17 0a 15 be
       -0.14871566 0.14675471 0.09771154 -0.1455463
0002b0 01 19 44 3e 41 92 d2 3d 8e 08 5b be cf d3 a3 3d
       0.19150163 0.10281802 -0.21389982 0.07999384
0002c0 eb 51 76 3d b9 41 02 3e fa c4 ca 3d 5f 8e c8 bb
       0.060136717 0.12720384 0.099008515 -0.0061204876
0002d0 ea 6f 00 3d 74 ca eb 3d d0 ab 12 be 2a 44 a1 bc
       0.03135673 0.11513224 -0.14323354 -0.019685823
0002e0 c5 ff 13 3c a5 c0 1c be f8 fc 43 3e d3 cd cc bb
       0.009033148 -0.15307863 0.19139469 -0.006250122
0002f0 89 15 c1 bd 60 7a bc bd 67 7e 57 3e bc 53 ff 3d
       -0.09427936 -0.09203029 0.21044312 0.12467143
000300 e2 0a de 3d 34 df 31 3d be 78 b2 3d 57 56 3d 3e
       0.108419195 0.043425754 0.08714436 0.18489967
000310 27 bc c9 bc 18 7f 33 bd 81 5a 3f 3e b8 97 0a bd
       -0.02462585 -0.043822378 0.18686868 -0.033836097
000320 02 c7 e9 3d 21 3b e4 3d 79 76 2f be 97 24 df bd
       0.11414911 0.111440904 -0.17135037 -0.10895651
000330 de 9b 34 be 7d 33 d7 bc 93 76 1e 3e c9 cb 1f 3e
       -0.17637584 -0.026269669 0.1547492 0.15605082
000340 d7 79 db 3c 18 fc 6a 3c a1 01 1f 3d be 99 4e 3e
       0.026791496 0.01434233 0.038819913 0.20175835
000350 08 c7 65 3e 9f 9a 3b 3e 4f 2c 9c bd dc c3 d5 bc
       0.22439206 0.18320702 -0.07625639 -0.02609437
000360 e2 2e 4a 3c 19 d8 05 3e 38 67 43 bd 34 50 5f be
       0.012340279 0.13070716 -0.04770586 -0.21807939
000370 d1 37 1d 3e 40 ac 6b 3e af 4b d3 3b 9c c4 53 3d
       0.15353324 0.23014927 0.006448231 0.051701173
000380 50 56 0b be 28 04 37 bc b9 0f 13 be 74 a1 63 be
       -0.13607144 -0.0111704245 -0.14361466 -0.22229558
000390 3e 56 97 3d 51 92 d1 3d 70 66 49 bd 04 82 01 3d
       0.07389496 0.10232986 -0.049169958 0.031618133
0003a0 f8 2e 69 be 60 c0 c8 3d f7 c7 0a bc 8f f6 14 3e
       -0.22771823 0.098023176 -0.008470527 0.1454718
0003b0 c4 bf bf bd 6c 6c 28 3e 7f 1b 35 3e 2a ec 22 3d
       -0.09362748 0.1644761 0.1768627 0.039776005
0003c0 e2 6a 39 be dd 14 d4 bd fc 55 dc 3d f8 b6 42 3e
       -0.18107179 -0.10355542 0.10758588 0.1901511
0003d0 b9 3f ab 3d 1d 64 f5 bd b4 49 65 3e 3c da 61 3b
       0.083617635 -0.11981986 0.22391397 0.0034462353
0003e0 47 b0 5c be c6 40 fd 3c f7 13 11 3e d1 26 db 3d
       -0.2155162 0.030914675 0.14167772 0.10700763
0003f0 8a 11 35 3e b0 b4 e3 bd 00 15 22 be b5 87 81 3e
       0.17682472 -0.11118448 -0.15828323 0.2529885

convs.1.bias f4 [64]
000000 b1 1f 71 3b 4e 24 69 3d 35 8f 9d bb 47 cf 86 bd
       0.0036792571 0.05691939 -0.0048083314 -0.06582504
000010 9e 95 a4 bd 4f 46 3f 3e 5d f3 c5 bd 45 fd 6d 3e
       -0.0803635 0.18679164 -0.096655585 0.23241146
000020 66 29 93 3d 5a 96 00 3d 79 75 9f bc 7c bf 84 3e
       0.071856305 0.031393386 -0.019465195 0.2592734
000030 11 a2 15 be 3b 62 9c bd c9 99 70 bd f6 aa 48 3d
       -0.14612605 -0.076359235 -0.05874041 0.048991166
000040 d7 f6 77 bd c0 eb d2 3b 6a e8 dd 3d cf 28 ae bd
       -0.06053814 0.006436795 0.10835345 -0.08503877
000050 4b 2e 6a bd 1a 54 05 bd 9c af 25 be cb 15 41 3e
       -0.057173055 -0.03255091 -0.16180271 0.1885597
000060 b0 6d 90 bd 37 93 fb 3d 69 41 a6 bd c4 cd 85 3e
       -0.07052171 0.122839384 -0.08117945 0.2613355
000070 86 32 9a 3d 80 34 be 3d 47 6e 9f 3d c8 06 11 bc
       0.07529168 0.09287357 0.077847056 -0.008851714
000080 5d ba 18 bb 22 8a 6a bd f8 3f c1 3c fe e5 e3 bd
       -0.002330444 -0.05726064 0.023590073 -0.11127852
000090 e8 0a 21 bc 98 43 52 bc 12 54 10 3e 23 70 0a be
       -0.00982926 -0.012833498 0.1409457 -0.1351934
0000a0 9d 50 86 bd bf 62 f6 3d fa 0c c7 3d 48 f9 18 bb
       -0.065583445 0.12030553 0.09719272 -0.0023341943
0000b0 47 4b 2c 3b 24 5b c5 bc be 29 c9 bb 3f 6c e4 3d
       0.0026289986 -0.02409131 -0.0061390093 0.11153459
0000c0 e1 bd fb bd 61 57 a4 3d df 9e 84 bd 78 eb 9f bc
       -0.12292076 0.08024479 -0.06475615 -0.01952146
0000d0 91 7f 97 bd 8c 25 34 3e 31 e9 2e bc 30 f7 91 3d
       -0.07397378 0.17592448 -0.010675714 0.071272254
0000e0 10 55 28 3d 0d ec f4 bd 3b 6b 7e 3c 29 a4 e0 3c
       0.041096747 -0.119590856 0.015528495 0.027422028
0000f0 97 16 f7 bd 33 0a fe bd 4b ee 28 3e 61 59 36 3d
       -0.120648555 -0.12404289 0.16497152 0.044518832

convs.1.lin.weight f4 [64, 64]
000000 f3 8e 31 3e e6 25 2c be d3 ac e2 3b 2c 57 8b be
       0.17339687 -0.16811332 0.006917575 -0.27214944
000010 f2 12 98 3d 35 8d 9d 3d ef 7b fc bd 7f 9c a2 3c
       0.074254885 0.07692949 -0.12328326 0.019850014
000020 fd 6d d8 bd 92 a2 95 ba 57 53 da 3d 38 83 3e 3e
       -0.105678536 -0.0011416248 0.10660427 0.18604743
000030 a7 f3 18 be c5 38 eb 3d 52 7b 7d 3d a1 38 db bd
       -0.14936696 0.11485437 0.061885186 -0.107041605
000040 54 72 6a 3d 98 70 3f bd 3c a4 5a 3e 2f c2 85 3c
       0.057237938 -0.046738237 0.21351713 0.016327946
000050 08 72 1f be 50 cd 1d be 05 3a 19 bd b9 6a 3e be
       -0.15570843 -0.15410352 -0.037408847 -0.18595399
000060 2d af 5a 3e 39 6a 6b bd 0a 35 2d 3e 88 98 a0 be
       0.21355887 -0.05747435 0.16914764 -0.31366372
000070 5c ed 0c bd 63 49 f8 3d af fa 01 3e f2 99 71 3d
       -0.03440605 0.121233724 0.12693284 0.058984704
000080 78 a7 69 be 39 aa ed bb 1a 0b ad bd de aa 20 3e
       -0.2281779 -0.007252958 -0.08449383 0.1569018
000090 73 47 aa bc 61 e4 2f bd bb 90 0e 3e 28 da 07 3e
       -0.020786023 -0.04294241 0.13922398 0.13266814
0000a0 aa 71 06 be ea 49 52 3e db 06 a1 bd d3 7e 1b 3e
       -0.13129297 0.20536008 -0.07862636 0.15185098
0000b0 21 00 e5 bc 3e 97 f2 3d dc ec e7 3c 14 32 86 bd
       -0.027954163 0.118452534 0.028311186 -0.065525204
0000c0 31 b8 13 be 00 f1 0e be f1 02 33 3e ec ac 11 3e
       -0.14425732 -0.13959122 0.17481591 0.1422612
0000d0 3d 12 bd 3d df e3 3f 3d a7 44 0a 3c 26 ec 50 be
       0.09231994 0.046848174 0.00843922 -0.20402583
0000e0 b8 a2 f9 3d 1c 2b 06 3e 17 68 53 bc c7 0e 76 3d
       0.12189239 0.13102382 -0.012903235 0.060072687
0000f0 ed 21 45 3e 54 8a 96 be a4 5f 9b 3d 91 8d ca 3c
       0.19251223 -0.2940241 0.075866014 0.024725707
000100 47 d0 82 be 63 f9 3b be 23 18 1e 3d 33 f9 9a 3d
       -0.25549528 -0.18356852 0.038597237 0.07567062
000110 d8 46 88 bd 85 2c 00 be 08 f2 5b 3c f2 f7 ae bc
       -0.066541374 -0.12516983 0.013424404 -0.021358464
000120 7c 22 72 3e d2 e7 64 3d ce 47 53 3e f6 d7 2b 3e
       0.23645967 0.055885144 0.2063286 0.16781601
000130 c3 7c fa bd 05 a6 25 be 05 b0 64 3d 50 bb 45 bd
       -0.12230828 -0.16176613 0.055831928 -0.04827434
000140 0f 9e 25 be b5 a3 0a be 32 f5 53 3e ea 5c 36 bc
       -0.16173576 -0.13539012 0.20699003 -0.011130551
000150 25 19 c2 bd 64 42 9b 3c 89 39 39 be 42 ee 6d 3d
       -0.09477452 0.018952556 -0.18088354 0.05808855
000160 de 17 5a 3e 48 b7 33 bd 67 40 13 be 26 82 3f bd
       0.21298167 -0.043875962 -0.14380036 -0.04675498
000170 10 51 c2 3d 78 c2 3f bd 97 16 a1 3c b5 fb e6 bd
       0.09488118 -0.04681632 0.019664092 -0.11278478
000180 bb 44 2c 3e b3 6e 26 be 4e 7d 8b 3e a2 48 d5 bd
       0.16823094 -0.16253166 0.27244037 -0.10414244
000190 63 43 fb 3d 20 3b ff 3d 16 bc 0c be 3a 36 fa bc
       0.12268712 0.12462449 -0.13743624 -0.030543435
0001a0 f8 05 23 bd 97 13 df bd 22 fa f5 3c 6b 74 6c be
       -0.039800614 -0.10892408 0.0300265 -0.23091285
0001b0 bf 43 13 ba bc a7 b4 bd 51 2d b4 3c 30 2f fd 3d
       -0.00056177 -0.08821055 0.021994265 0.12362516
0001c0 2b 74 dc bd ab 89 23 3e e1 03 a9 bd 46 66 97 3d
       -0.10764345 0.15970485 -0.08252693 0.07392554
0001d0 3e dc f1 3d 95 90 19 be 7d 3a 25 3d 69 3b a9 bd
       0.11809586 -0.1499656 0.040338982 -0.08263285
0001e0 ec 01 8e 3d 1c 1d 5f 3d d1 01 39 be dc cb 09 be
       0.0693396 0.05447112 -0.18067099 -0.13456672
0001f0 9a 24 14 be c0 7a 21 be 51 ad 9c 3d cc 50 b7 bd
       -0.14467087 -0.15769482 0.07650245 -0.08950958
000200 eb ef 35 be 3f fa f5 3c 19 37 17 3e 6e 9d bd 3c
       -0.17767303 0.030026553 0.14767112 0.023146357
000210 2f 8a ad 3d 51 5f f1 bd 7d 90 fd 3c bf 3f 12 bd
       0.08473622 -0.11785758 0.030952686 -0.035705324
000220 f8 a1 e1 bc 18 05 c6 bd 78 17 46 bd 51 fe da 3d
       -0.027543053 -0.0966894 -0.048362225 0.10693038
000230 f1 2c f6 bd 09 f2 e5 bd c0 cb c5 bd 44 4a cb bb
       -0.12020291 -0.11227805 -0.09658003 -0.0062039215
000240 ca 85 e4 bd 97 1a 1e 3e e6 65 0d 3e 41 cd 1a be
       -0.11158331 0.1543983 0.13808402 -0.1511736
000250 35 b5 3e 3e e2 23 93 bd 17 48 d8 bd ca c4 36 be
       0.18623812 -0.071845785 -0.10560625 -0.17848507
000260 43 b3 4f 3e 48 d5 23 be ce 10 27 3d 9d d0 5c be
       0.20283227 -0.15999329 0.04078751 -0.21563955
000270 8a ee 91 bd 3d b0 26 be 16 3d b1 bc 37 e9 4e bb
       -0.07125576 -0.16278167 -0.021635573 -0.0031572112
000280 2e 50 cf bd c8 cc 34 be 44 66 77 3d e8 c3 03 bd
       -0.10122715 -0.17656243 0.060400262 -0.032169253
000290 9e 52 c6 bd 20 33 da 3d f8 46 54 bd 6d 27 44 ba
       -0.09683727 0.106542826 -0.051825494 -0.00074826815
0002a0 f4 d1 ad bd 55 69 44 be a1 66 12 bc 0e fd 90 3d
       -0.08487311 -0.19180806 -0.008935601 0.07079516
0002b0 ae 41 18 3e 0f bc 32 bd c3 e7 e9 bd 6c 7d a3 bd
       0.14868805 -0.043636378 -0.11421158 -0.07982907
0002c0 2f 9a da bd 3b ce 7f bd cc cc 9e bc 48 54 b2 3d
       -0.106739394 -0.062452536 -0.019384764 0.087074816
0002d0 20 51 46 3e 88 46 06 3e f1 8f 5f be 1f 65 d5 bd
       0.19366884 0.13112843 -0.21832253 -0.10419678
0002e0 19 b1 53 3d 9c df 40 3d 47 e0 94 3e f6 23 01 bc
       0.051682565 0.04708825 0.2907736 -0.007882109
0002f0 c3 89 ed 3c 18 68 25 be 31 89 26 be 33 be 67 be
       0.028996354 -0.1615299 -0.16263272 -0.22631149
000300 8d 19 97 bd 9c 26 58 be ed 84 bc 3b 0d 22 04 3e
       -0.0737792 -0.21108478 0.0057531507 0.12903614
000310 ce 48 aa 3d 86 c3 56 3e ce 12 65 3e f1 ae 34 be
       0.08314668 0.20973024 0.22370455 -0.1764486
000320 a4 34 86 3c f2 f7 92 3d 37 79 81 bd 4b 8c 40 3e
       0.016382523 0.07176198 -0.06321948 0.18803518
000330 1f cc 6a 3e 42 0f 2e be 1a 37 2a 3c a6 2f 43 3e
       0.22929429 -0.16998008 0.010389114 0.19061145
000340 c8 0d 7b 3d af 45 14 3e f3 8e ce 3d 80 3d 81 3c
       0.06129244 0.14479707 0.10085859 0.015776396
000350 c9 f5 84 3e cb bb 15 3e 11 53 b7 3d 98 6e e8 bc
       0.2596877 0.14622419 0.089513905 -0.028373048
000360 03 11 39 3d 33 53 12 be e6 b6 51 be 66 37 d0 bd
       0.04518224 -0.1428955 -0.20479926 -0.101668164
000370 fb df bd 3d 0f e2 8f bd f3 97 d4 bd 07 d6 04 3e
       0.092712365 -0.07025539 -0.103805445 0.1297227
000380 13 6f 16 be f3 77 2f 3e b5 9d 05 3e 08 75 b0 3d
       -0.14690809 0.17135601 0.13048442 0.08616072
000390 f4 75 08 3e 54 07 5f 3e b4 27 57 bd 36 55 d1 bd
       0.13326246 0.21780139 -0.0525281 -0.10221331
0003a0 ee 85 36 be 38 eb 1a 3e a9 9a 3b bd 67 87 e4 bd
       -0.17824528 0.15128791 -0.045801792 -0.111586384
0003b0 28 21 0d be b5 d4 2b 3e 2f 45 ed 3d 3e 64 4a bd
       -0.1378218 0.1678036 0.11585461 -0.049412005
0003c0 cd 88 3e 3e 7e 38 eb 3c f3 ad b2 3d 23 08 93 bd
       0.18606873 0.028713461 0.087245844 -0.07179286
0003d0 d7 bf 89 3c 64 9f c3 3c 2f 81 fb bd 96 4e 92 be
       0.01681511 0.023879714 -0.12280499 -0.2857558
0003e0 15 4a 5a 3e 0f 95 9c bc 40 7f 2f be b4 e9 b0 bc
       0.21317323 -0.019114045 -0.17138386 -0.021595813
0003f0 0e 80 d2 bd 75 a6 16 bc f2 04 ee 3d 89 41 c7 3d
       -0.10278331 -0.00919496 0.11622037 0.09729297

norms.0.weight f4 [64]
000000 6d 84 67 3f fc cf 6d 3f b4 ac 77 3f c6 d0 59 3f
       0.9043644 0.92895484 0.967479 0.8508419
000010 4f 10 7c 3f ae 7e 66 3f 61 bb 80 3f 3e 1b 67 3f
       0.98462385 0.9003705 1.0057184 0.90275943
000020 c2 25 7e 3f ad fc 70 3f d3 54 82 3f d3 ea 65 3f
       0.99276364 0.9413555 1.0182136 0.8981144
000030 a0 fa 7d 3f 30 33 80 3f a7 30 7d 3f a3 da 7c 3f
       0.9921055 1.0015621 0.9890236 0.98771113
000040 ba 7b 79 3f 38 c6 8e 3f 1a 26 6a 3f 2a 49 76 3f
       0.97454417 1.1154242 0.9146439 0.9620539
000050 13 5a 69 3f f6 b8 6f 3f 7c c7 81 3f ea e6 77 3f
       0.9115307 0.93641603 1.0139003 0.9683672
000060 77 cc 81 3f de b0 59 3f 7f 4c 7f 3f 1a 5b 36 3f
       1.0140523 0.850355 0.997261 0.7123276
000070 4d fa 6d 3f 67 e8 83 3f 6e 0e 83 3f cd 3e 78 3f
       0.92960054 1.0305299 1.0238779 0.96970826
000080 d5 2b 69 3f cd 43 63 3f 59 a9 79 3f 7a 28 84 3f
       0.9108251 0.8877533 0.9752403 1.0324852
000090 0a 26 70 3f ec 30 72 3f c3 08 79 3f b7 7a 5f 3f
       0.93808043 0.946059 0.97278994 0.87296623
0000a0 3e 4d 71 3f 8e 27 72 3f d7 d2 86 3f bb d9 80 3f
       0.9425849 0.94591606 1.0533093 1.0066446
0000b0 2f 32 80 3f 97 b7 6b 3f 6f ef 75 3f 35 d6 60 3f
       1.0015315 0.9207701 0.9606847 0.87826854
0000c0 61 17 84 3f dd 44 83 3f 43 14 9a 3f 19 85 73 3f
       1.0319635 1.025539 1.2037433 0.95124966
0000d0 25 09 81 3f 9c 01 8b 3f 47 84 84 3f fd 8f 79 3f
       1.0080916 1.0859866 1.0352868 0.97485334
0000e0 10 5d 78 3f 4a da 6f 3f 17 ba 77 3f d9 a9 82 3f
       0.97017 0.9369246 0.96768326 1.0208083
0000f0 3e af 83 3f a9 68 91 3f 86 3a 72 3f 83 d7 7c 3f
       1.0287855 1.1360065 0.9462055 0.98766345

norms.0.bias f4 [64]
000000 d9 8a 9b bc df 42 8c bd f1 98 e0 bb 5e 1f d7 bd
       -0.018987106 -0.06848692 -0.0068541695 -0.1050403
000010 14 b0 05 bd 78 f5 52 bd 03 ac 0a bd ea 52 8f bd
       -0.032638624 -0.05150363 -0.03385545 -0.069982365
000020 fc 83 79 bd 21 c2 dd ba 53 54 35 3c f4 15 29 be
       -0.060916886 -0.0016918817 0.011067468 -0.1651228
000030 b0 f3 24 bd a0 8a bd 3b e3 4b 3f 3c 26 b3 4e bd
       -0.04027146 0.0057843477 0.011675808 -0.050463818
000040 2f c6 4f 3b 3a f6 ef 3c 6e fc bd bd 80 11 25 3d
       0.003170382 0.029292215 -0.09276663 0.040299892
000050 e7 cc 08 be 5c f4 e3 bc ca af bf bd 47 33 95 bd
       -0.13359414 -0.02782648 -0.09359701 -0.07285171
000060 d4 f2 fa bd 88 e3 1f be 00 1c b3 bd 46 c3 2e be
       -0.12253347 -0.1561414 -0.08745575 -0.17066678
000070 dd af 07 3c c7 23 6c bd 12 89 52 bd 3b 46 36 bd
       0.008281675 -0.057651307 -0.05140025 -0.04450057
000080 d8 e1 ad bc 3a 0d f5 bd 08 6d e0 bc b7 26 d8 3c
       -0.021225855 -0.119654134 -0.02739574 0.026385648
000090 0f 15 28 be fd d1 16 bb 33 4c 82 bd a4 db 0d be
       -0.16414283 -0.0023013346 -0.0636219 -0.13853317
0000a0 88 d5 7e bd 03 fd 9d bd 10 f5 fb 3a d3 1b 9e bb
       -0.062215358 -0.07714274 0.0019222815 -0.0048250942
0000b0 a7 e2 ae bb e9 bc 10 bc c2 20 c1 bd f2 63 72 bd
       -0.0053370777 -0.008834102 -0.09430076 -0.059177347
0000c0 79 5c ec 3b 54 c1 7b 3c 1e 74 a0 3d ad 1c d7 bc
       0.007213172 0.015365917 0.078346476 -0.02625879
0000d0 e8 61 f6 3b 81 82 cb 3c 12 74 a5 3a e6 69 63 bd
       0.0075189956 0.024842503 0.0012623093 -0.055520914
0000e0 ef 9f 3f 3c a4 c2 2a bd c5 3b 13 bd 2c 1a 83 3d
       0.011695846 -0.04168953 -0.035945673 0.06401476
0000f0 7e 0d fa ba ad 97 10 3e 56 ad 70 3c 1b cf 3c bd
       -0.0019077507 0.1412036 0.014689764 -0.04609595

norms.0.mean_scale f4 [64]
000000 85 c5 82 3f f4 b3 83 3f 7a 75 84 3f ba 4b 8a 3f
       1.0216528 1.0289292 1.0348351 1.080436
000010 6a fe 63 3f 49 d2 73 3f 70 6a 75 3f e9 15 73 3f
       0.8906008 0.95242745 0.95865536 0.9495531
000020 99 a8 83 3f 09 ac 7a 3f 04 c8 7e 3f 8f 0a 8a 3f
       1.0285827 0.97918755 0.9952395 1.0784472
000030 2f 46 65 3f f3 25 86 3f ca f7 82 3f 89 68 7f 3f
       0.89560217 1.0480331 1.0231869 0.99768883
000040 e1 64 78 3f 3a c9 84 3f ea d5 76 3f 83 0f 86 3f
       0.9702893 1.037391 0.96420157 1.0473484
000050 be 48 80 3f 5d 8c 92 3f 7d 78 70 3f a7 e5 56 3f
       1.0022199 1.1449085 0.9393385 0.8394417
000060 13 54 86 3f 29 99 79 3f 31 8d 83 3f 08 3e 87 3f
       1.0494407 0.9749933 1.0277463 1.0565805
000070 5b a7 81 3f 7b a7 81 3f 2f d8 7d 3f 51 2e 80 3f
       1.0129198 1.0129236 0.99157995 1.0014135
000080 a2 e6 85 3f 31 a3 6b 3f 13 7a 82 3f 3c 1f 75 3f
       1.0461009 0.92045885 1.0193504 0.95750785
000090 93 dd 82 3f 9b a4 7e 3f 92 25 86 3f 7e 27 75 3f
       1.0223869 0.9946992 1.0480216 0.95763385
0000a0 52 fe 91 3f b7 f5 84 3f 0c b1 83 3f 38 6a 7d 3f
       1.1405737 1.0387486 1.0288405 0.989902
0000b0 04 34 8a 3f 24 28 76 3f b4 3f 4e 3f d4 ef 85 3f
       1.0797124 0.96155 0.80565953 1.0463815
0000c0 92 f8 6f 3f 45 d8 82 3f 51 d3 94 3f 22 a9 78 3f
       0.93738663 1.022225 1.1626989 0.97133076
0000d0 1e 01 70 3f 2e 98 85 3f bb 82 94 3f ae ac 87 3f
       0.93751705 1.0437067 1.1602396 1.0599573
0000e0 71 f5 79 3f b3 62 85 3f fd db 79 3f a3 ad 93 3f
       0.9764014 1.0420746 0.976013 1.1537365
0000f0 3d c0 85 3f 22 a9 8e 3f 8d 9e 89 3f 46 78 6f 3f
       1.0449291 1.1145365 1.0751511 0.935429

norms.1.weight f4 [64]
000000 b2 4f 91 3f 38 c0 55 3f b8 31 71 3f 3e ba 67 3f
       1.1352446 0.8349643 0.9421649 0.9051856
000010 c2 10 8b 3f 4a 47 90 3f 33 ef 94 3f d1 13 57 3f
       1.0864489 1.1271756 1.1635498 0.8401461
000020 78 51 86 3f ff dc 80 3f a1 83 80 3f 82 88 87 3f
       1.0493612 1.0067443 1.004017 1.0588534
000030 6b 7e 7e 3f 2e bd 7d 3f e4 fe 73 3f 6f ee 71 3f
       0.9941165 0.9911679 0.9531081 0.94504446
000040 fa c7 81 3f ed c9 80 3f ee 1f 63 3f 25 e1 81 3f
       1.0139153 1.0061623 0.88720596 1.0146834
000050 f4 b6 91 3f 69 03 8f 3f 3c 84 80 3f 4a 8f 63 3f
       1.1383958 1.1172916 1.0040355 0.88890517
000060 77 e1 6b 3f b2 43 63 3f 30 aa 64 3f 2b 4d 54 3f
       0.9214091 0.8877517 0.89322186 0.8293025
000070 fa 1c 75 3f 15 8f 80 3f 3c ff 8d 3f 86 75 77 3f
       0.9574734 1.0043665 1.1093516 0.966637
000080 2d cd 77 3f 58 b2 81 3f 20 93 75 3f 2b 7c 63 3f
       0.9679745 1.0132551 0.9592762 0.8886134
000090 71 6d 73 3f 9b 74 72 3f bb 43 7f 3f e9 dd 85 3f
       0.9508887 0.94709176 0.99712723 1.0458347
0000a0 f4 85 8c 3f 11 b0 63 3f 39 49 67 3f 7e 60 85 3f
       1.0978379 0.8894053 0.90346104 1.0420072
0000b0 d9 e6 72 3f 69 84 88 3f 12 8d 80 3f 1a 5f 95 3f
       0.94883496 1.0665408 1.0043051 1.1669648
0000c0 67 55 86 3f 62 4e 7e 3f db bc 7d 3f 52 86 63 3f
       1.0494813 0.9933835 0.99116296 0.8887683
0000d0 e7 39 8d 3f 5a 0f 68 3f 4a 9b 76 3f aa c6 42 3f
       1.1033295 0.90648425 0.963307 0.7608439
0000e0 84 8b 83 3f 7d 13 42 3f 8a 4b 74 3f 7b 5a 81 3f
       1.0276952 0.75810987 0.95427763 1.0105737
0000f0 79 6f 70 3f 9f 7b 7d 3f ae 7a 80 3f d7 89 65 3f
       0.93920094 0.99016756 1.0037439 0.8966345

norms.1.bias f4 [64]
000000 62 4e 05 bc 6e e0 b8 bd f9 46 58 bd 34 c5 5b bd
       -0.008136364 -0.090271816 -0.05280206 -0.053654864
000010 02 c7 d5 3c 44 db bf bc d6 80 0d ba 02 49 11 be
       0.02609587 -0.023419984 -0.0005397921 -0.14188007
000020 a3 06 27 3b e3 c2 0f 3d 5d 84 01 3d ee 51 8a bd
       0.0025486134 0.035097968 0.031620372 -0.06753908
000030 59 96 17 3d a9 cd 56 3b c8 57 91 bd c8 fc 01 bd
       0.037008617 0.0032776392 -0.07096821 -0.03173521
000040 4d 37 01 3d ec a3 67 3c 41 88 82 bd c5 99 55 bd
       0.03154688 0.014138203 -0.063736446 -0.0521486
000050 ac 5b fa 3b d8 22 ec bc d4 f6 40 bd 12 48 07 be
       0.0076403227 -0.028825209 -0.047110394 -0.13211086
000060 c8 9a b8 bd a0 1a b6 bd a3 94 ae bd a1 0b 43 be
       -0.09013897 -0.08891797 -0.08524444 -0.19047405
000070 8c a4 5c bd 83 8b 9d 3c 8c 1b 32 bd bf b9 f2 bc
       -0.05386786 0.019231563 -0.043483302 -0.029629586
000080 36 b0 53 3c 00 a0 97 3c 6a cb 25 bd 15 f0 59 bd
       0.01292043 0.018508911 -0.040477194 -0.053207476
000090 81 26 10 be 4d d8 7a 3a 6f c2 b4 bd 87 ad 27 39
       -0.14077188 0.00095689745 -0.08826148 0.00015991005
0000a0 3e 29 6c bd 9a 1d 34 be e6 cb 2b be 08 d9 b8 bb
       -0.05765652 -0.17589417 -0.16777 -0.0056411065
0000b0 66 e1 a9 bd 40 62 59 3d c3 ac 34 3d 1f e3 d4 3a
       -0.082949445 0.053072214 0.04411007 0.0016242004
0000c0 83 cc 21 3d ab 1e e6 bb ce 05 19 bd 6e bc 9d bd
       0.03950168 -0.007022699 -0.03735905 -0.07701956
0000d0 8c 27 94 3d 45 4c d3 bd ae 60 65 bb f8 a4 0c be
       0.072341055 -0.10317282 -0.0035000253 -0.13734806
0000e0 8a ad 5b bc 96 21 63 be 9f 87 7b bc b9 7d 9e bd
       -0.013408074 -0.22180781 -0.015352159 -0.077388234
0000f0 d2 bc 2c bd db f8 8d bd eb 63 c0 bc c5 4b b5 bd
       -0.04217226 -0.06932231 -0.023485145 -0.088523425

norms.1.mean_scale f4 [64]
000000 dd 6c 6e 3f b9 04 83 3f 6a 06 76 3f 43 bf 87 3f
       0.9313486 1.0235816 0.9610354 1.0605243
000010 04 d9 86 3f cd 49 87 3f 63 ee 6c 3f 9b 89 87 3f
       1.0534978 1.0569397 0.9255125 1.0588869
000020 54 66 83 3f 25 f6 7d 3f f5 ae 76 3f a8 b8 8b 3f
       1.0265603 0.9920371 0.96360713 1.0915728
000030 07 ab 89 3f ec ce 86 3f a9 9d 74 3f 87 06 81 3f
       1.0755318 1.0531898 0.9555307 1.0080117
000040 25 78 87 3f 43 17 83 3f df 41 83 3f e3 a3 66 3f
       1.058354 1.0241474 1.0254477 0.9009382
000050 34 a5 78 3f a6 20 81 3f f2 bd 63 3f 4d e6 88 3f
       0.9712708 1.0088089 0.8896171 1.0695282
000060 bb e7 78 3f c5 30 8b 3f 00 4d 8a 3f 0c 78 95 3f
       0.9722859 1.0874258 1.0804749 1.167726
000070 eb 8f 8b 3f 71 ae 86 3f 1b 2e 88 3f b4 9a 76 3f
       1.0903295 1.0521985 1.063907 0.9632981
000080 42 ff 7f 3f c6 25 77 3f 40 c9 6e 3f 84 86 8a 3f
       0.9999887 0.9654201 0.93275833 1.0822301
000090 df 4b 73 3f 1d e7 80 3f ff 5b 89 3f e5 24 6b 3f
       0.95037645 1.007053 1.07312 0.9185317
0000a0 bf ce 80 3f f2 17 92 3f 64 a5 88 3f d0 b9 7a 3f
       1.0063094 1.1413558 1.0675473 0.9793978
0000b0 b8 16 82 3f df d1 7c 3f c8 d6 82 3f a6 95 8a 3f
       1.0163183 0.9875774 1.0221796 1.0826919
0000c0 a1 35 90 3f 19 8f 86 3f 84 7d 6e 3f 41 2f 83 3f
       1.1266366 1.051242 0.9316027 1.0248796
0000d0 8d be 8a 3f 2b 7a 8a 3f ee a3 7c 3f 7e 9d 74 3f
       1.0839401 1.0818533 0.98687637 0.95552814
0000e0 81 0c 82 3f 9d 48 81 3f b3 c2 6c 3f 37 51 82 3f
       1.0160066 1.0100285 0.9248459 1.0181035
0000f0 c8 b2 6c 3f 9b 06 76 3f 73 04 8c 3f 54 89 86 3f
       0.924603 0.9610383 1.0938858 1.0510659

conv_last.bias f4 [64]
000000 65 d5 0d be ea 69 02 be f7 37 f3 bd 92 d8 64 3c
       -0.13850935 -0.12735716 -0.11875909 0.01396765
000010 14 44 30 bb e3 17 2c 3e 4e 56 1e 3e 66 af 71 ba
       -0.0026896046 0.16805987 0.1546261 -0.0009219557
000020 27 76 20 3e a8 85 37 3e 55 05 d4 bd 32 f4 6d 3e
       0.15670072 0.1792208 -0.103525795 0.23237684
000030 d2 38 41 be b2 84 13 3e 26 a8 10 be 34 b4 2d be
       -0.18869331 0.14406088 -0.14126644 -0.16963273
000040 f0 4b 6e 3d a0 e6 3b be 6c 69 c1 3d e3 83 63 3e
       0.05817789 -0.18349695 0.09443936 0.2221828
000050 7d 31 32 bd d7 5b 70 bd f3 a0 11 3e 8b 73 1d 3e
       -0.043504227 -0.058681335 0.14221554 0.15376107
000060 02 a5 ba bd 36 92 1d 3e 41 87 3a 3d dc 93 ed bc
       -0.09113504 0.15387806 0.045539144 -0.029001169
000070 9d 47 43 be b0 c8 63 bc ef 28 07 bd e0 25 38 3e
       -0.19070287 -0.013902828 -0.03299802 0.17983198
000080 6f c3 5c 3e 9c 93 b2 bd b9 60 92 3e 4e ad 20 be
       0.21558927 -0.087195605 0.2858942 -0.1569111
000090 a5 27 8f 3e a1 6f c3 bd 78 82 18 3e 96 f1 a9 bd
       0.27959934 -0.09542776 0.1489352 -0.08298032
0000a0 9e 4a 4b 3e 7b ce 2c 3e 12 5c bb 3e 12 2d 94 3e
       0.19852683 0.16875641 0.36593682 0.28940636
0000b0 d0 4a 79 3e b3 ad 92 3d 44 d6 e5 3d a6 cb 1a 3e
       0.24344945 0.07162037 0.112225085 0.15116748
0000c0 13 97 dd bd d5 ea ff 3d c9 95 37 3e e4 2b fe 3d
       -0.10819831 0.124959625 0.17928232 0.12410715
0000d0 93 83 07 be 63 64 26 be 79 d7 45 3e ba 40 57 3d
       -0.13233785 -0.16249232 0.19320478 0.052551962
0000e0 6a 22 7b bd 49 67 90 3e 58 d5 2c be 47 99 6c bd
       -0.061312117 0.282038 -0.16878259 -0.057763364
0000f0 63 65 56 be a2 d8 38 3e 3c 9e 54 be 82 bd bb 3d
       -0.20937113 0.18051389 -0.20763487 0.09167005
